titanic/saved_models/best_model.pt (torch, 4759 bytes, 5 tensors)

linear_relu_stack.0.weight f4 [20, 17]
000000 b4 83 4b bc a0 ef a5 be f8 2d 33 bd d4 c1 0c bd
       -0.012421537 -0.32409382 -0.04374501 -0.034364536
000010 1d d1 a8 be 80 e0 5b be f6 79 62 3e 90 c0 81 3c
       -0.3297204 -0.21472359 0.22116837 0.015838891
000020 00 0f 8c 3c c2 0e 25 3e 5a 8d e4 bd dc de 38 3e
       0.017096996 0.16118911 -0.11159773 0.18053764
000030 ad 99 1c be 60 28 d5 3d 50 6d 05 be 9c 5a 42 bd
       -0.15292998 0.104080915 -0.1302998 -0.047449693
000040 b3 7b ae 3d 24 da 17 3e a1 9a 99 3f 2b cd 41 3e
       0.085196875 0.14829308 1.2000314 0.18925922
000050 06 9d fe 3e aa 5a 1a 3e e7 bb 0d 3e a8 9b 64 bd
       0.49729174 0.15073648 0.1384121 -0.055812508
000060 02 80 3d bc 91 d9 4c bf 63 b2 37 bf a8 20 0e bf
       -0.011566164 -0.8001948 -0.7175657 -0.5551858
000070 6b c9 e9 3f 23 16 30 3f 4c 89 47 bf d8 e6 33 be
       1.8264593 0.6878378 -0.77943873 -0.17568529
000080 7e d5 91 be cd 68 75 3e dc 3e d0 be 93 76 8f 3e
       -0.28483194 0.2396576 -0.40672958 0.28020152
000090 16 88 9e 3d c2 12 e3 be 13 64 16 3f 9d cc 9d bf
       0.077408 -0.4435025 0.5874645 -1.2328068
0000a0 26 40 0c 3f dc df 07 bf 04 b0 b4 3d 5f 3e dd be
       0.5478538 -0.5307596 0.08822635 -0.43211648
0000b0 74 82 e8 3e f6 59 93 bf 7a 30 8e be ff d5 41 3f
       0.45412028 -1.1511829 -0.2777136 0.7571716
0000c0 9f 33 6f 3d 49 6d 77 be a9 1f 00 3f 23 22 be be
       0.05839884 -0.24162783 0.5004831 -0.3713542
0000d0 c6 e5 e5 3c b9 aa 50 3c cf b1 31 be a6 21 82 be
       0.028063666 0.012736016 -0.17352985 -0.25416297
0000e0 9c 21 2f be b0 9a 5d bd d4 b5 35 be 98 4d c6 3c
       -0.17102665 -0.0541026 -0.17745143 0.024206921
0000f0 b6 b8 52 bd 40 30 2c bc 78 09 f3 bc bf c1 bd 3d
       -0.051445685 -0.010509551 -0.029667601 0.0926547
000100 9a 69 c6 bd 5f 69 84 3d a9 5d 51 3b a2 30 80 bd
       -0.09688111 0.064654104 0.0031946695 -0.06259276
000110 57 d0 d4 be 90 82 ec be 23 a2 fd bd 02 97 75 3d
       -0.415652 -0.4619336 -0.12384441 0.059958465
000120 7b 6f d3 bd b8 cf 40 bf 48 ce 6f 3f 36 8f 3f 3c
       -0.103239976 -0.75316954 0.93674135 0.011691859
000130 bd 1f 78 3e 7c 2a 32 3f d7 73 8c 3f bb 5d c7 bf
       0.24230857 0.69596076 1.0972852 -1.5575479
000140 77 2a 53 be ad 13 22 3f 77 db 47 3d 8d 3e ae 3e
       -0.20621668 0.6331127 0.048793282 0.34032097
000150 e0 eb f3 3e c5 d2 fc be e0 65 ae 3e 97 5f 4c bc
       0.47640896 -0.49379554 0.340621 -0.012473962
000160 64 68 0b be bf 76 9d 3e 92 64 46 bf dd dc 50 3f
       -0.1361404 0.3075466 -0.7749721 0.8158701
000170 9b 03 11 3f c7 70 d1 3d 8a 71 3c 3f 16 74 65 3f
       0.56646127 0.10226589 0.73610747 0.8963026
000180 45 fc de bf e3 0a c2 be eb c5 87 3f ed 0a 75 3e
       -1.7420737 -0.3789893 1.0607275 0.23929949
000190 83 98 93 3c 11 f4 0e 3f 3e 79 e3 be 78 44 15 3f
       0.01801706 0.55841166 -0.44428438 0.583076
0001a0 97 10 99 3e 8d 18 26 bf 9d e5 6d 3f e9 ef 59 bf
       0.2989547 -0.6488121 0.9292849 -0.851317
0001b0 c4 e9 fb 3e b8 ef 10 3f 7f 4e 03 bf 6f 2f d2 3e
       0.49201787 0.5661578 -0.5129165 0.41051814
0001c0 77 fe f4 3f b0 64 e2 bc e0 2f 52 3e e5 fc 50 3f
       1.9140157 -0.027635902 0.20526075 0.81635886
0001d0 85 f9 e8 3d 15 c4 40 3d 0b 05 1f 3f 7f 12 9e be
       0.11375717 0.047062 0.6211707 -0.30873486
0001e0 3a 6f 53 3d 75 cb 0b bf 5f d0 d7 be 76 75 11 3e
       0.051619746 -0.54607326 -0.42151162 0.14204964
0001f0 fc c2 96 be a6 fb ed be b4 79 31 3f a5 94 48 3f
       -0.29445636 -0.46481055 0.6932633 0.78351814
000200 db 07 2d bf ab 4f 22 be e1 77 ac bf d3 99 9c be
       -0.6759011 -0.15850703 -1.3474084 -0.3058611
000210 f0 40 4f 3f 47 9b 19 3e ea d0 a3 be f8 b4 3a 3f
       0.8095846 0.1500064 -0.31995326 0.72932386
000220 b0 9f c8 3e 17 70 53 3f 3b 31 d6 be 55 13 eb be
       0.39184332 0.8259291 -0.41834435 -0.45913187
000230 f0 48 42 bf 5d 58 07 3f 3f c6 2d bd c9 b8 8a 3e
       -0.75892544 0.52869207 -0.04242539 0.27094105
000240 e5 7a f9 3d 58 ca 1a bf 1a 08 96 bf 43 95 0b 40
       0.121816434 -0.60465 -1.1721222 2.1809852
000250 65 91 af 3e c4 82 3c bf 9f d4 88 bd 16 70 55 3e
       0.34290615 -0.7363703 -0.06681179 0.20843539
000260 75 01 6c bc cd b5 c8 3e ea cd a2 3e 30 82 91 3e
       -0.014404644 0.39201203 0.31797725 0.28419638
000270 71 b6 9d be b5 54 ed bf 2a ad ac be 14 0a 4b 3f
       -0.30803254 -1.8541476 -0.33725864 0.79312253
000280 ca 18 b9 be c3 fc 3f be ca 50 bf 3f 09 d3 46 bf
       -0.36151725 -0.18748765 1.494653 -0.77665764
000290 63 d8 08 40 c6 85 89 3f 08 1e 00 be 2d 92 33 3c
       2.1382072 1.074395 -0.12511456 0.010960144
0002a0 cf b9 84 bf 12 f1 96 3e 6b 8a fe 3e 7f 13 54 3f
       -1.0369204 0.29480797 0.4971498 0.8284225
0002b0 43 2d a5 3d 03 79 0f bd b9 6c c5 bf 66 b5 26 be
       0.080652736 -0.035027515 -1.5423805 -0.16280136
0002c0 eb 97 9b bd 2f 67 fb be cb 2a 27 bf db 61 ca be
       -0.075973354 -0.4910216 -0.6529967 -0.39527783
0002d0 03 62 6c bf 56 41 12 40 77 b1 06 3f 4e 2a d6 be
       -0.92337054 2.2852378 0.5261454 -0.4182915
0002e0 62 b2 cf be 06 31 97 be a8 c0 5d 3e f8 a3 37 be
       -0.40565783 -0.2952959 0.21655524 -0.17933643
0002f0 29 cb ca bc 1f 7b 12 be ce 40 cb bd a6 29 12 be
       -0.024755077 -0.1430478 -0.0992447 -0.142737
000300 c8 1f 63 3d 1b c9 bc 3d d0 ec dd 3d a6 44 0b 3e
       0.05545023 0.09218045 0.10836184 0.13600406
000310 04 b9 08 bd 5c 66 2c 3e 82 85 31 3e f0 25 7f bd
       -0.03337957 0.16835922 0.17336085 -0.06229204
000320 8a e4 ab bd 80 67 1f bb 9a 9d bf 3c f4 9d db bd
       -0.083932 -0.0024323165 0.02339058 -0.107234865
000330 28 62 2b 3e 46 73 dd 3e 35 04 0c bf 4c c8 39 bf
       0.16736662 0.4325201 -0.5469392 -0.72571254
000340 f6 25 1d bf e5 38 ca be 68 2d 9c 3f e6 71 4f bf
       -0.6138605 -0.39496532 1.2201357 -0.8103317
000350 39 10 1d bf 06 69 db 3d 50 c7 8f 3f 8c f7 90 3f
       -0.6135288 0.10713391 1.12327 1.1325545
000360 a1 8b 8b 3f 8b 46 96 bf ae f5 a9 bd 59 48 b6 bd
       1.0901986 -1.1740278 -0.08298813 -0.08900518
000370 ab d3 17 3d 06 f4 a6 bc 1c 7b af 3c b4 58 52 3d
       0.037067097 -0.020380031 0.021421008 0.051354125
000380 21 35 37 3d 9e 3e 43 be 52 1e 51 be 18 1b 5c bd
       0.044728402 -0.19066855 -0.20421723 -0.053736776
000390 12 b0 bd bd 3c 9c a7 bd 7a 82 10 be 70 c8 3a 3d
       -0.09262098 -0.08184096 -0.14112273 0.04560131
0003a0 c3 82 44 bd 78 b5 6e 3e e3 b8 6a bd 53 5c 88 be
       -0.047976267 0.23311412 -0.057305228 -0.26632938
0003b0 d3 15 4c be 16 a9 31 be 23 58 ac bd 1d ae d5 3e
       -0.199302 -0.17349657 -0.08415248 0.417344
0003c0 2f 78 de 3d 59 1c 26 be 21 e8 35 be a9 dd e2 be
       0.10862767 -0.16221751 -0.17764331 -0.44309738
0003d0 7c 19 a9 3d ef 12 18 3e de f8 9e be d5 2f 0b bf
       0.08256814 0.14850973 -0.31049246 -0.5436986
0003e0 62 f0 d0 be 67 39 9c 3e b3 eb 28 3f 3b f2 23 bf
       -0.40808398 0.30512545 0.6598465 -0.6404149
0003f0 4d ec 6d be 56 d4 80 3d 61 81 c7 bc 45 c5 b2 be
       -0.23234673 0.062905 -0.024353685 -0.3491613

linear_relu_stack.0.bias f4 [20]
000000 31 d2 94 be 12 f7 d0 be 4a ae f2 3e d9 5e 86 3b
       -0.29066613 -0.408135 0.47398597 0.004100662
000010 41 37 66 3e 00 13 a8 3e bd 93 14 3e 99 8e b0 3e
       0.22482015 0.32826996 0.14509483 0.34483793
000020 7c 1d 8a 3d d1 5f 11 bf 83 4e 01 bf c7 83 20 be
       0.06743905 -0.5678683 -0.50510424 -0.15675269
000030 19 71 80 3e 24 b8 4a be fa 94 9b 3c a6 56 80 3d
       0.25086287 -0.19796807 0.018991936 0.06266527
000040 17 7a f9 be 46 16 bc 3d c0 b5 0a 3f b1 04 e1 be
       -0.4872596 0.09183936 0.5418358 -0.43948892

linear_relu_stack.3.weight f4 [10, 20]
000000 4e f2 21 be 8d bd 6b be 1c 8c 27 bd 92 44 38 be
       -0.15815088 -0.23021527 -0.040905103 -0.17994907
000010 8c a9 86 be 42 09 2b be c6 8b 3b be 56 0c c8 3d
       -0.2630123 -0.1670275 -0.18315038 0.09767978
000020 bb dc 08 be b2 16 81 be e0 d1 04 3c 26 bf 47 3e
       -0.13365452 -0.25212628 0.008106679 0.19506511
000030 96 1a bb 3d 80 5c e7 3c d8 ea 43 be c0 15 fc 3c
       0.0913593 0.02824235 -0.19132555 0.03077209
000040 92 9d f2 bb e1 c7 15 be 7b b6 52 3d 7d 75 0e bd
       -0.0074040378 -0.14627029 0.05144356 -0.034780014
000050 89 fa 7c 3d 58 32 07 3f b5 6e 37 bf 39 58 1c bd
       0.061762366 0.52811193 -0.716533 -0.038170073
000060 a2 de c7 bd 56 1f ce be 6e 82 88 3e 4f aa e6 be
       -0.09759261 -0.40258282 0.2666201 -0.4505181
000070 59 19 0b 3e 68 2a b5 3e fe 6f 85 3e 4c b6 7d bd
       0.13583888 0.35383916 0.26062006 -0.06194143
000080 c6 8a d3 3e 45 73 7a bd c3 f8 b9 3e 2d ea 29 bd
       0.41316813 -0.061145086 0.36322603 -0.041483093
000090 8a 31 20 3f 1a 4c c5 3e 42 ff 04 3f 45 d4 88 3e
       0.6257559 0.38534623 0.5195199 0.2672445
0000a0 cb 11 d1 bd ec 4e d5 3e 79 6e be be e8 73 3a 3c
       -0.10208472 0.41661775 -0.3719366 0.011380173
0000b0 35 c4 d5 bd 6e 4e 39 bf 4d 51 02 bd 65 14 58 bf
       -0.10437814 -0.723853 -0.031815816 -0.8440612
0000c0 90 e4 70 be f6 dd 80 3e bd 8e e3 3e 57 0c 19 be
       -0.2352469 0.25169343 0.44444838 -0.14946114
0000d0 d4 9d af 3e 96 d6 a2 3d 0d 01 6c bd a3 8e 8d 3d
       0.343001 0.07951085 -0.05761819 0.069119714
0000e0 9c 24 04 3f 39 ea 38 3e 80 cb c3 3e 35 d8 1e 3f
       0.5161836 0.18058099 0.38241196 0.62048656
0000f0 31 4d 0d 3e 2d 08 17 3f 45 61 18 bf 15 14 9a 3d
       0.13798977 0.5899685 -0.5952342 0.075233616
000100 6f 67 12 bd 9f 76 f1 be 92 35 07 3e d4 52 0e bf
       -0.035743173 -0.47160813 0.13204029 -0.55595136
000110 ce 6c 92 bc 4c ff 96 3e 66 fe f7 3e 2f cd a9 bd
       -0.017874148 0.2949165 0.48436278 -0.08291089
000120 e1 91 8c 3e 24 00 7d bc 34 61 0f 3e cb 09 cd bd
       0.27455047 -0.015441928 0.14001924 -0.100116335
000130 50 a2 31 3f 23 71 df 3e e6 d9 a0 3e 29 23 b8 3e
       0.69388294 0.43641004 0.31416243 0.35964325
000140 24 77 3d 3c 14 3e 02 3f 80 9b 16 bf fd 92 13 bd
       0.01156405 0.50875974 -0.58831024 -0.03602885
000150 33 32 e0 3d ca 6f be be b7 04 aa 3b 60 0f 99 be
       0.10947075 -0.37194663 0.0051885503 -0.29894543
000160 0d 7e 51 3e ff 1f ca 3c 00 b2 f6 3d 5d 74 8e bd
       0.20458241 0.02467346 0.120456696 -0.06955788
000170 2a 64 12 3d 2a 03 73 3e 46 2e 9c 3d 99 6c 3a 3d
       0.035740055 0.23731676 0.076260135 0.045513723
000180 71 a8 ad 3e b7 ce c0 3e df ae 6c 3e 80 08 09 3f
       0.33917573 0.3765771 0.23113583 0.53528595
000190 8d 54 b3 3d 91 7f 8d bd 00 ab 3a be 3f b8 67 3d
       0.08756361 -0.06909097 -0.18229294 0.056572195
0001a0 2c 9b e1 be 7c 8f 81 be 15 ec 94 be 73 8d e1 be
       -0.440637 -0.25304782 -0.29086366 -0.4405323
0001b0 8f 6f 5a bc 13 ff c0 bc fd 04 bb bd 54 9c e2 3d
       -0.013332262 -0.023559129 -0.09131811 0.110649735
0001c0 14 d7 5a 3e 79 a6 fd bd e1 c0 b7 bd 7b aa 35 3d
       0.21371108 -0.12385268 -0.089723356 0.044352036
0001d0 cd 0e ff bd 1c 7a 77 3d cc 26 10 be 76 fa 8a 3d
       -0.12453995 0.060419187 -0.140773 0.06786053
0001e0 2a c4 26 3e 7a fd 16 be 5e 99 00 3f e4 9f 76 3d
       0.16285768 -0.14745131 0.5023402 0.060211077
0001f0 5d ed b9 3e df b9 36 3f 05 9e d6 3e fe 63 e8 3e
       0.36313906 0.71377367 0.41917434 0.45388788
000200 8d e8 23 3d 4d fa e5 3d bc 76 12 3d 69 3b 12 3d
       0.0400167 0.11229382 0.035757765 0.03570119
000210 25 75 6c be d0 f3 8b bd e4 cb 5c bc 77 77 71 be
       -0.23091562 -0.06833613 -0.013476346 -0.23580728
000220 ab 94 c8 be f5 78 74 bf db 52 69 bf b7 bf 97 be
       -0.39175925 -0.95497066 -0.9114205 -0.29638454
000230 d4 ce 25 bd 66 0c 75 3d de ea 98 3e 60 10 c1 3c
       -0.04048045 0.059826277 0.2986669 0.023567379
000240 30 5e f1 3c 4a 15 fd 3e ae e9 3c 3f 64 80 e2 3e
       0.029463857 0.49430305 0.73794067 0.4423858
000250 1b ce 1d bf b3 44 cd be a5 b5 24 bf 58 86 3c 3d
       -0.61642617 -0.40091476 -0.6433967 0.046026558
000260 30 e0 bb be 78 20 31 3d 3f 77 b7 be 1a f2 04 3e
       -0.3669448 0.043243855 -0.35833165 0.1298298
000270 85 a9 b6 3d fd 65 ac bd ec d8 53 bf 7f ae 41 be
       0.08919052 -0.0841789 -0.8275287 -0.18914221
000280 18 9e 9e 3d 9c 32 ab be cb bd 80 be 60 da 36 3e
       0.07744998 -0.3343705 -0.251448 0.17856741
000290 8f a7 ae bd 35 b9 4d be 35 a4 b6 bd 0a dd 36 be
       -0.08528053 -0.20090182 -0.08918039 -0.17857757
0002a0 83 bb ab be bf 0d 3d be ba 2a 77 be ea 60 45 3e
       -0.33541498 -0.18462275 -0.24137393 0.19275251
0002b0 3a 68 9f be 96 16 0c be 49 64 8f bd a6 ec 3d be
       -0.31134206 -0.13680491 -0.0700155 -0.18547305
0002c0 f2 12 b9 3c 02 00 a5 be df 95 4d be 57 60 b4 3e
       0.022592042 -0.32226568 -0.20076703 0.3522975
0002d0 c0 9f 1c 3b da 35 87 bc 7d 41 de 3e 76 a4 37 be
       0.002389893 -0.01650517 0.4340934 -0.1793383
0002e0 0b 30 c6 3e 7e 47 38 3f 31 0a 71 3f bc fe 7b 3e
       0.3870853 0.7198409 0.94156176 0.24608892
0002f0 37 31 84 bf 49 3f 2a bf d2 29 44 bf a8 4c 32 3d
       -1.0327519 -0.66502815 -0.7662631 0.043530136
000300 c2 77 1b bf dc fd d8 bd f9 d3 6b 3e af a0 d7 3d
       -0.6072961 -0.10595295 0.2303008 0.10528695
000310 92 36 f1 3d 91 f6 92 be a5 d2 23 bf 92 0c 79 3c
       0.117779866 -0.2870374 -0.63993293 0.015200751

linear_relu_stack.3.bias f4 [10]
000000 f0 9e 49 bd 12 0f 0e 3d dc b3 88 be 9e fe 90 3d
       -0.04922384 0.03468234 -0.26699722 0.070798144
000010 43 b8 13 bd ec 4e 2c be 2c 75 15 3f bb 64 df 3e
       -0.036064398 -0.16826981 0.58381915 0.4363154
000020 0b 22 84 bd d1 56 1c 3f
       -0.06451806 0.6106997

linear_relu_stack.6.weight f4 [1, 10]
000000 ac 56 fd 3c 9d 71 aa be 26 a2 98 be 80 58 a3 be
       0.030925117 -0.33289805 -0.2981121 -0.31903458
000010 c9 7a 46 be 60 04 39 bd 02 29 26 3f b8 91 34 3f
       -0.19382776 -0.045170188 0.6490632 0.7053485
000020 b9 02 fb 3d 61 00 80 3f
       0.12256379 1.0000116
