titanic/saved_models/best_model.pt (torch, 4759 bytes, 5 tensors)

linear_relu_stack.0.weight f4 [20, 17]
0	0xbe6e715c	-0.2328543
1	0x3dd29c34	0.102837
2	0x3d62caa8	0.05536905
3	0x3db051d8	0.086093605
4	0xbd9ffe0a	-0.07812126
5	0xbdf1ed71	-0.118128665
6	0x3e4363c8	0.19081032
7	0xbe490d46	-0.1963397
8	0x3e303020	0.17205858
9	0xbe090144	-0.13379389
10	0xbe41b2d1	-0.1891587
11	0x3e1224f2	0.14271906
12	0xbde69608	-0.11259085
13	0xbd81b6ea	-0.06333716
14	0x3bd8d6a0	0.006617382
15	0xbe58d7e7	-0.2117611
16	0x3e5fded2	0.21862343
17	0x3e8c8dd4	0.27451956
18	0x3f203031	0.62573534
19	0x3dfd3fb9	0.1236567
20	0xbeee1055	-0.46496835
21	0xbe5dafbe	-0.21649072
22	0x3d4a5daa	0.04940573
23	0xbecc9865	-0.39960018
24	0x3e9dbc4a	0.30807716
25	0xbe13dc9d	-0.14439626
26	0xbf076923	-0.528948
27	0xbed96a50	-0.42463923
28	0x3ef1915c	0.47181213
29	0x3c824210	0.015900642
30	0xbf8674ff	-1.0504454
31	0xbc98b949	-0.018643038
32	0xbe6c17fe	-0.23056027
33	0xbe69920c	-0.22809619
34	0xbebfda3b	-0.37471184
35	0xbb6f9146	-0.0036555096
36	0x3d27f4fb	0.041005116
37	0x3e2b6fa5	0.16741808
38	0xbe055cd5	-0.13023694
39	0xbcd6e7a9	-0.026233511
40	0xbebc8221	-0.3681803
41	0xbd443749	-0.047904287
42	0x3e2b9a14	0.16757995
43	0xbe741722	-0.2383695
44	0x3dabe2e0	0.08392882
45	0x3e65e63e	0.22451112
46	0xb8f0f800	-0.000114902854
47	0xbe6c5625	-0.23079737
48	0x3b5765c6	0.0032867058
49	0xbd173c14	-0.03692253
50	0x3dd6e370	0.10492599
51	0xbdcb306b	-0.09921344
52	0xbde55383	-0.11197569
53	0xbd3145e6	-0.04327955
54	0xbe100cf2	-0.14067438
55	0xbe0af1a6	-0.13568744
56	0x3cebf6c1	0.028804185
57	0xbe0c6b1d	-0.13712735
58	0xbd97aacc	-0.07405624
59	0x3e25b4fe	0.16182324
60	0x3e4fb7b2	0.20284918
61	0x3e42d6ba	0.19027224
62	0xbd3c39bc	-0.045953497
63	0xbe346598	-0.1761688
64	0x3d9dffeb	0.07714828
65	0xbdafadae	-0.08578049
66	0x3b7d7cd5	0.0038679142
67	0x3e3b5362	0.18293527
68	0xbf1c8b35	-0.61149913
69	0x3f308081	0.6894608
70	0x3d8f06ce	0.0698372
71	0xbecdc9d6	-0.4019305
72	0x3e858a9f	0.26082322
73	0xbeeacb81	-0.45858386
74	0x3e0bb1a8	0.13641989
75	0xbfa294f6	-1.2701709
76	0xbf336a42	-0.7008401
77	0xbe9108fe	-0.28327173
78	0x3ec6a6ca	0.38799125
79	0xbf6dc0fb	-0.9287259
80	0x3d959884	0.07304481
81	0x3f434ba4	0.76287293
82	0x3edb0971	0.4278064
83	0xbe0f3a75	-0.13987143
84	0x3effbc32	0.4994827
85	0xbf347fbc	-0.7050741
86	0xbde4bb96	-0.11168592
87	0x3ec8ffcc	0.39257658
88	0xbf57b55e	-0.8426112
89	0x3e5e3bd2	0.21702507
90	0xbeaf2853	-0.34210452
91	0x3eba0812	0.36334282
92	0x3fb89743	1.4421161
93	0x3fa82208	1.3135386
94	0x3fe27134	1.7690797
95	0x3b8f6c40	0.004376918
96	0x3e34264e	0.17592737
97	0x3c9428a0	0.018085778
98	0x3ebfe3ba	0.3747843
99	0xbf8f41f9	-1.1192008
100	0x3ec1b8ac	0.37836206
101	0xbe7cfea4	-0.24706513
102	0x3e11170e	0.14168951
103	0x3f44bd9e	0.7685183
104	0x3f192448	0.59820986
105	0xbe24c0e0	-0.16089201
106	0xbfa85881	-1.3152009
107	0xbf30e01a	-0.6909195
108	0x3dfcf006	0.12350468
109	0xbe535297	-0.20636974
110	0xbf2b6b5a	-0.6696068
111	0xbf2b396b	-0.6688449
112	0xbf9588d4	-1.1682382
113	0x3fc701e4	1.5547452
114	0xbe07be10	-0.13256097
115	0xbeffc6da	-0.499564
116	0xbb7118fa	-0.0036788569
117	0xbf4b9bf4	-0.7953484
118	0xbe89c0f6	-0.2690503
119	0x3d10c267	0.035341647
120	0x3fbe846f	1.4884166
121	0xbda71f16	-0.08160226
122	0x3f06e806	0.5269779
123	0x3f55e490	0.83551884
124	0x3ea3b9c4	0.31977665
125	0xbf9766a5	-1.18282
126	0xbd889cf6	-0.06670563
127	0x3e349b9b	0.17637484
128	0xbfad25ed	-1.3527199
129	0xbc774b0f	-0.015093579
130	0x3f1bf3cf	0.609189
131	0xbe5b130d	-0.21393986
132	0xbf57a8b9	-0.84241825
133	0xbea118f7	-0.3146436
134	0xbf043a69	-0.51651627
135	0x3edc4038	0.43017745
136	0xbe05a3fa	-0.13050833
137	0x3f3a746b	0.7283389
138	0x3eb7cba5	0.35897556
139	0xbee44b22	-0.44588572
140	0x3dd2f707	0.10301023
141	0xbebf220e	-0.3733067
142	0x3e868e74	0.26280558
143	0xbf20ccc6	-0.6281246
144	0x3d1c2151	0.03811771
145	0xbe2e6d29	-0.17033829
146	0xbe22a313	-0.1588252
147	0x3f7bab3b	0.9830815
148	0xbbb69d80	-0.0055729747
149	0xbf9054e0	-1.1275902
150	0x3c978ebe	0.018500682
151	0x3d66a60f	0.05631071
152	0x3ba529fe	0.0050404062
153	0x3d5fec87	0.05466893
154	0xbefb4be9	-0.49081352
155	0xbf3e4385	-0.74321777
156	0xbf7e961e	-0.9944781
157	0xbfddb322	-1.7320292
158	0xbf88608f	-1.0654467
159	0x3fe6be4e	1.8026826
160	0xbf030d23	-0.5119192
161	0xbffef493	-1.9918388
162	0x3eb5ca1c	0.3550576
163	0x3f459fde	0.7719706
164	0x3fe8af8f	1.8178576
165	0xbe644826	-0.22293147
166	0xbf6d16fc	-0.92613196
167	0x3eb87dcb	0.36033472
168	0xbe55d016	-0.2088016
169	0x3e4e19f2	0.20127085
170	0xbe6485cc	-0.22316664
171	0xbe3bd755	-0.18343861
172	0xbdea2892	-0.114335194
173	0xbb8a2140	-0.0042153895
174	0x3dbd2078	0.092347085
175	0x3e66e224	0.22547203
176	0xbe50148e	-0.20320341
177	0x3e44ff7c	0.19238085
178	0xbe2e95b3	-0.17049293
179	0xbdb61a68	-0.08891755
180	0xbe4dd49a	-0.20100632
181	0x3e23703a	0.1596078
182	0xbde1467c	-0.10999772
183	0xbd964b18	-0.07338542
184	0xbe23e220	-0.16004229
185	0xbe6d4844	-0.23172098
186	0x3dae9a60	0.085255384
187	0xbf035dff	-0.513153
188	0xbee1e1a6	-0.4411747
189	0x3d60e035	0.05490132
190	0xbf6bd749	-0.92125374
191	0x3f903729	1.1266834
192	0xbeb8403b	-0.35986504
193	0x3eeb5eac	0.45970666
194	0x3f9f2484	1.2433019
195	0x3e91232c	0.28347147
196	0x3f11b3b4	0.5691483
197	0x3f76ecc6	0.9645504
198	0x3d647618	0.055776685
199	0x3e72c8a0	0.23709345
200	0x3f64e243	0.8940775
201	0xbe45221e	-0.19251296
202	0xbe3273eb	-0.17427032
203	0x3f04d37f	0.5188522
204	0x3d835cc6	0.064141795
205	0x3e26a7cb	0.16274945
206	0xbf60945c	-0.8772638
207	0xbf3e0ffc	-0.7424314
208	0xbf465dbf	-0.77486795
209	0xbfc86fb4	-1.5659089
210	0x3fb4670b	1.4093946
211	0xbebb7381	-0.3661156
212	0xc04cd9b4	-3.2007875
213	0x3e3b5af0	0.18296409
214	0x3f7a9434	0.9788239
215	0x3ff550aa	1.9165242
216	0x3e60cc10	0.21952844
217	0xbfac38a3	-1.3454784
218	0x3d9f0429	0.07764465
219	0x3eb91bc2	0.3615399
220	0x3ee4fa4e	0.44722217
221	0xbeeb6831	-0.4597793
222	0xbfaec8b5	-1.3655001
223	0xbe17f6b4	-0.14840204
224	0x3ebfa3d6	0.37429684
225	0xbf32da01	-0.698639
226	0xbec31e8a	-0.38109237
227	0xbe788e08	-0.2427293
228	0xbe8d94db	-0.2765263
229	0x3ef29732	0.47380978
230	0xbf3d7ff8	-0.7402339
231	0x401b9680	2.4310608
232	0xbf3526b6	-0.70762193
233	0xbcede3a8	-0.029039219
234	0x3f0420ed	0.5161274
235	0x3f520f05	0.8205417
236	0x3f0afd92	0.5429317
237	0xbf95bffb	-1.1699213
238	0xbec13605	-0.37736526
239	0x3db76af2	0.08955945
240	0xbe98fa9b	-0.29878697
241	0x3d140073	0.03613324
242	0xbea79abf	-0.3273525
243	0xbf80cc61	-1.0062371
244	0x3fb46cc2	1.409569
245	0x3f84bb68	1.0369692
246	0xbe4de0e2	-0.20105317
247	0x3f243c86	0.6415485
248	0x3f29e445	0.66363937
249	0xbe83efa8	-0.2576878
250	0x3e292838	0.16519248
251	0x3f4bb196	0.7956785
252	0xbde9c0e0	-0.11413741
253	0x3f378f87	0.7170338
254	0x3e139851	0.14413573
255	0xbe60dd6d	-0.21959467

linear_relu_stack.0.bias f4 [20]
0	0xbe70ea2c	-0.2352683
1	0xbf0cfe28	-0.5507531
2	0xbe89940f	-0.26870772
3	0xbe846a70	-0.25862455
4	0x3e6e07af	0.23245119
5	0xbe904933	-0.28180847
6	0xbf0b5e98	-0.54441214
7	0xbed2bd42	-0.41160017
8	0x3eb869ee	0.36018318
9	0x3eaaec01	0.33383182
10	0xbe286fae	-0.16448852
11	0xbd4787e4	-0.04871358
12	0x3e458bc6	0.192916
13	0x3f3e3f10	0.74314976
14	0xbc8de850	-0.01732269
15	0xbe85343f	-0.26016423
16	0xbcf7b2e0	-0.030236661
17	0xbeb66197	-0.3562133
18	0x3edbe384	0.42947018
19	0xbc27e4dc	-0.010247435

linear_relu_stack.3.weight f4 [10, 20]
0	0x3c90eca8	0.017690971
1	0x3c1ffe7b	0.009765263
2	0xbdb47d09	-0.08812911
3	0xbe9664f9	-0.2937391
4	0xbf088a36	-0.53335893
5	0xbf619554	-0.8811848
6	0x3eabf186	0.33582705
7	0x3f3fa568	0.74861765
8	0x3ebf6db0	0.37388372
9	0x3f12baac	0.5731609
10	0xbd99de56	-0.0751311
11	0x3cd81e41	0.026381614
12	0x3f002be3	0.50066966
13	0xbeb98900	-0.36237335
14	0x3e1c58fa	0.15268317
15	0x3ca533ab	0.020166239
16	0xbd0539ef	-0.032525953
17	0xbd5b38e0	-0.053521037
18	0xbf0880a1	-0.5332127
19	0xbf0a1ee8	-0.5395341
20	0x3cccdb30	0.02500686
21	0xbe9d5fab	-0.3073705
22	0xbe924c04	-0.2857362
23	0x3e90a20a	0.28248626
24	0x3f277c68	0.65424204
25	0x3f75302d	0.95776635
26	0xbe95fa54	-0.29292548
27	0xbf4bd7a5	-0.7962592
28	0xbe351202	-0.1768265
29	0xbf28b358	-0.65898657
30	0x3d68c3f0	0.056827486
31	0x3f246eff	0.64231867
32	0xbf43a895	-0.7642911
33	0x3f2c4318	0.67289877
34	0x3dc5a56d	0.09650693
35	0x3d9b82fc	0.07593343
36	0x3d3c4d45	0.045972127
37	0xbe039631	-0.12850262
38	0x3e7af9cc	0.24509352
39	0x3ee332a7	0.44374582
40	0x3dca7580	0.098856926
41	0xbf3a4f6b	-0.7277743
42	0xbe15d16e	-0.14630672
43	0xbdcce514	-0.10004631
44	0x3e88484e	0.26617664
45	0x3fc28ee6	1.5199859
46	0xbf356791	-0.70861155
47	0xbf3762ef	-0.71635336
48	0x3e5a675a	0.21328488
49	0xbf4a315c	-0.78981566
50	0x3e2e6994	0.17032462
51	0x3e7e49dd	0.24832864
52	0xbe87aef6	-0.26500672
53	0x3f176f25	0.5915397
54	0x3ee5af05	0.44860092
55	0x3d9450e4	0.07241991
56	0xbdac3c1b	-0.08409902
57	0x3d16fe33	0.036863517
58	0x3daba18a	0.083804205
59	0x3f1b3bf7	0.60638374
60	0x3db1e22c	0.08685717
61	0xbf205f06	-0.62644994
62	0x3e253328	0.16132796
63	0x3d8a1482	0.06742193
64	0x3ef3b2b4	0.47597277
65	0x3f92f242	1.1480181
66	0xbd824032	-0.063599005
67	0xbf31986b	-0.69373196
68	0xbf02e6ce	-0.5113343
69	0xbf0f4bd7	-0.559751
70	0x3e433028	0.19061339
71	0x3f2df576	0.6795267
72	0xbcf6cc18	-0.030126616
73	0x3e2fd7a4	0.17172104
74	0x3f179908	0.5921788
75	0xbcb79b5b	-0.022412946
76	0xbd48d1b5	-0.049028117
77	0xbd921eb3	-0.07134762
78	0x3e292a59	0.1652006
79	0x3f40d401	0.7532349
80	0xbb26e6c0	-0.0025467128
81	0xbd5558dc	-0.052086696
82	0x3de06364	0.10956457
83	0xbe5857fc	-0.21127313
84	0xbc5b38d0	-0.013380244
85	0xba8e2300	-0.0010844171
86	0xbe46d86a	-0.19418493
87	0xbe1ad092	-0.15118626
88	0x3d73aac0	0.05948901
89	0x3d8a2d6c	0.06746945
90	0xbe38a7f9	-0.18032826
91	0xbd9d8572	-0.07691468
92	0xbdf68921	-0.12037874
93	0x3a9ac700	0.0011808574
94	0xbdfb3dbe	-0.12267636
95	0xbdd18ee0	-0.10232329
96	0x3db72e50	0.0894438
97	0x3ce284d0	0.02765122
98	0x3e092934	0.13394624
99	0xbd902f4a	-0.0704027
100	0xbd4d45b8	-0.050115317
101	0x3e718a7e	0.23587987
102	0x3e97cff8	0.29650855
103	0xbd932bd4	-0.07186094
104	0xbf17ccb6	-0.5929674
105	0xbf3d0df1	-0.738494
106	0x3e73cfdd	0.23809762
107	0x3f37a09e	0.7172946
108	0x3e804ff4	0.25061
109	0x3ea1a8b2	0.31574017
110	0x3e41a89a	0.18911973
111	0xbe9190de	-0.28430837
112	0x3e659977	0.22421823
113	0xbee5e6f1	-0.44902757
114	0x3e90189c	0.28143775
115	0xbe8fa039	-0.28051928
116	0xbde18b20	-0.11012864
117	0x3df2612c	0.1183494
118	0xbe548dc0	-0.20757198
119	0x3cb7faac	0.022458397
120	0xbdf556f5	-0.11979476
121	0xbf08f363	-0.5349638
122	0xbe2685fe	-0.16262051
123	0xbda52776	-0.08064167
124	0x3ebbc4e8	0.36673665
125	0x3fac0bc5	1.3441092
126	0x3d81b817	0.063339405
127	0xbf1011b8	-0.56277037
128	0xbf2d9061	-0.6779843
129	0xbf0feaaf	-0.56217474
130	0xbe43d93a	-0.19125834
131	0x3f1963d2	0.5991794
132	0xbef31a86	-0.47481173
133	0x3e7929a3	0.2433229
134	0x3ed2aa02	0.4114533
135	0xbe145eee	-0.14489338
136	0x3b5c8642	0.003364936
137	0xbdae79b2	-0.08519305
138	0x3ef57afd	0.47945395
139	0x3eeb03f5	0.45901456
140	0xbc2ad0e0	-0.010425776
141	0xbe459f48	-0.19299042
142	0x3dea5078	0.114411294
143	0xbe3cd664	-0.18441159
144	0xbe4294a0	-0.19002008
145	0x3e47c2d4	0.19507915
146	0xbdb0a264	-0.086247236
147	0xbe8e83a6	-0.27834815
148	0xbdde351c	-0.108499736
149	0x3d89a540	0.06720972
150	0xbc4bb1b0	-0.012432501
151	0x3d2b3180	0.041795254
152	0xbdb44b60	-0.08803439
153	0x3bd26400	0.0064206123
154	0xbe200062	-0.15625146
155	0x3e1c123a	0.15241328
156	0x3e50f508	0.20405972
157	0xbce19210	-0.027535468
158	0xbce30508	-0.02771236
159	0xbdf277d2	-0.1183926
160	0xbd1a6758	-0.037696213
161	0x3d84c454	0.06482759
162	0x3cc25c0b	0.02372553
163	0x3e984b1b	0.297448
164	0xbf5c5fab	-0.8608348
165	0xbf47bc12	-0.7802135
166	0x3eea5512	0.45768028
167	0x3d705748	0.058676988
168	0x3ebf93ab	0.3741735
169	0x3efcca32	0.49373013
170	0x3e1f74e6	0.15571937
171	0xbed44cb5	-0.41464773
172	0x3f1e5987	0.6185536
173	0xbf8aa4ea	-1.0831578
174	0x3d5cf3ee	0.053943567
175	0xbe092fee	-0.1339719
176	0x3e5091ce	0.2036812
177	0x3d8fe904	0.07026866
178	0xbecdd1b7	-0.40199062
179	0xbda5b5d8	-0.080913246
180	0xbe12d9cd	-0.14340897
181	0xbdc53aae	-0.09630333
182	0x3da1656d	0.078806736
183	0x3d320f08	0.043471366
184	0xbf4e4868	-0.80579233
185	0xbf16a2fd	-0.5884245
186	0x3eee8880	0.46588516
187	0x3f54ef8c	0.8317802
188	0x3ea52248	0.32252717
189	0x3ef56839	0.47931078
190	0x3e327550	0.17427564
191	0xbf018bdd	-0.5060404
192	0x3eb4e4fa	0.35330945
193	0xbf2a99d3	-0.6664097
194	0x3ee9c14f	0.45655295
195	0x3d7c07a5	0.061530728
196	0xbea5a987	-0.32355902
197	0x3e2bac41	0.16764928
198	0xbf2e4643	-0.6807596
199	0xbf2a55b6	-0.66537035

linear_relu_stack.3.bias f4 [10]
0	0x3eb18f88	0.34679818
1	0x3ede3be8	0.4340508
2	0x3e7c9247	0.24665175
3	0x3eada5eb	0.33915648
4	0xbe642b5a	-0.22282162
5	0x3eb0a628	0.34501767
6	0x3e9d475d	0.30718508
7	0xbe9b0964	-0.30280602
8	0x3f062faf	0.5241651
9	0x3eac86cf	0.336966

linear_relu_stack.6.weight f4 [1, 10]
0	0xbeec980f	-0.46209762
1	0x3f236f89	0.63842064
2	0x3f173ed0	0.5908022
3	0x3f4908c9	0.7852903
4	0x3e7028d2	0.23453072
5	0xbef5ed14	-0.4803244
6	0x3f2a89ce	0.66616523
7	0xbdb2fb31	-0.08739317
8	0xbebee7b7	-0.3728616
9	0xbeb49f1c	-0.3527764
